first with relu/my_iris_model.pt (torch, 3485 bytes, 6 tensors)

fc1.weight f4 [8, 4]
0	0xbe86f080	-0.26355362
1	0xbe8bf8ba	-0.273382
2	0x3e99df18	0.3005302
3	0xbea9603c	-0.33081234
4	0xbe70aec0	-0.23504162
5	0x3e8b4282	0.2719918
6	0xbebe5e1a	-0.3718117
7	0x3e7b1964	0.24521405
8	0x3e18b1d0	0.1491158
9	0xbe977dc0	-0.29588127
10	0x3f499ff8	0.7875972
11	0x3f818710	1.0119343
12	0x3f3848cc	0.7198608
13	0xbe950eb3	-0.29112777
14	0x3e729e1c	0.23693126
15	0x3f900c54	1.1253762
16	0x3f70543c	0.9387853
17	0x3f310aaa	0.691569
18	0xbf84fc03	-1.0389408
19	0xbf949f84	-1.161118
20	0xbee20954	-0.44147742
21	0x3ea9a77a	0.33135587
22	0xbd31b970	-0.043389738
23	0x3eb06166	0.3444931
24	0x3d490a34	0.049081996
25	0xbe72eeff	-0.23723982
26	0xbee7bb9d	-0.45260325
27	0x3e101daa	0.14073816
28	0xbea44298	-0.32082057
29	0xbde39248	-0.11111885
30	0x3e982fec	0.2972406
31	0xbe8b66de	-0.2722692

fc1.bias f4 [8]
0	0xbcc86160	-0.024460495
1	0xbd8afc30	-0.06786382
2	0xbf4dd365	-0.8040069
3	0x3d71fa70	0.059076726
4	0x3fa18d58	1.262126
5	0xbe403b2c	-0.18772572
6	0x3e9ba285	0.3039743
7	0xbe2685cc	-0.16261977

fc2.weight f4 [9, 8]
0	0x3e152432	0.14564589
1	0x3e15cffe	0.14630124
2	0xbcafa5a4	-0.021441288
3	0xbe2300db	-0.15918295
4	0x3f0763ee	0.52886856
5	0xbda740a4	-0.08166626
6	0x3e768d02	0.24077228
7	0xbe59247b	-0.21205322
8	0xbd13c5b0	-0.0360772
9	0x3e9b3027	0.30310175
10	0xbe9d131e	-0.30678648
11	0x3c5f8ee0	0.013644904
12	0xbb972380	-0.004612386
13	0xbe9ab6ca	-0.30217582
14	0xbd8c4270	-0.068486094
15	0xbea5ed4a	-0.324076
16	0x3d9c71f8	0.07638925
17	0x3d73e290	0.05954224
18	0x3f5ec88c	0.8702476
19	0xbd768ef6	-0.060194932
20	0xbf793165	-0.97340995
21	0xbe0287f2	-0.12747172
22	0xbe8109ec	-0.25202882
23	0x3e8cd2fb	0.27504715
24	0x3de80a28	0.11330062
25	0xbeb43b9d	-0.3520173
26	0xbec5b627	-0.38615534
27	0xbe58e629	-0.21181549
28	0x3f5ffeeb	0.8749835
29	0xbdd3cad8	-0.10341424
30	0x3ec5f161	0.3866072
31	0x3ddfbea8	0.10925037
32	0xbea3183f	-0.31854436
33	0x3d984cac	0.07436499
34	0x3eeecd47	0.4664099
35	0x3ee38071	0.4443393
36	0xbfba239f	-1.4542121
37	0xbcd3e1d0	-0.025864512
38	0x3e6f4546	0.2336627
39	0x3e004dea	0.12529722
40	0x3e2a597e	0.16635701
41	0x3e9943ab	0.2993444
42	0x3f35c173	0.70998305
43	0x3eee6175	0.4655873
44	0xbe85fef6	-0.26171082
45	0x3cbea070	0.023269862
46	0x3e424c83	0.189745
47	0xbda6fc0c	-0.08153543
48	0x3d3e94d0	0.046528637
49	0x3ba0ff80	0.0049132705
50	0x3ed856c5	0.422537
51	0x3f32db5d	0.6986597
52	0xbe920b84	-0.2852441
53	0xbe99f6c7	-0.3007109
54	0x3dea7307	0.11447721
55	0xbdefa19a	-0.11700745
56	0x3d0d8808	0.034553558
57	0xbea424bd	-0.3205928
58	0x3e0fa61e	0.14028212
59	0xbe7845b5	-0.24245341
60	0xbd2437a8	-0.04009214
61	0x3e9b6565	0.30350795
62	0x3dad4194	0.08459774
63	0x3e96eef5	0.29479185
64	0xbe443dc2	-0.19164184
65	0xbea8662f	-0.3289046
66	0xbe90ecf7	-0.2830579
67	0xbdf8017c	-0.12109658
68	0xbde17ac8	-0.11009747
69	0xbcc48c90	-0.023992807
70	0x3e4f061e	0.20217177
71	0x3e9dde6f	0.30833766

fc2.bias f4 [9]
0	0xbe7e371a	-0.24825707
1	0xbe52083c	-0.20510954
2	0xbee8da63	-0.45479116
3	0x3e8daa28	0.2766888
4	0xbf312f9b	-0.69213265
5	0xbebecb63	-0.37264547
6	0xbd96d96c	-0.07365689
7	0xbea0deaf	-0.31419894
8	0x3e995a55	0.2995173

out.weight f4 [3, 9]
0	0x3f005917	0.5013594
1	0xbdd2b02c	-0.10287508
2	0xbeca5b72	-0.39522892
3	0x3f646cdc	0.89228606
4	0xbd41a25b	-0.047273975
5	0xbf072b91	-0.5280085
6	0xbf195383	-0.59893054
7	0x3e951c01	0.29122928
8	0xbd90b894	-0.070664555
9	0xbf00d928	-0.50331354
10	0xbe811e3a	-0.25218374
11	0xbe87c4bc	-0.26517284
12	0xbf41e593	-0.7574093
13	0xbfb177ce	-1.3864686
14	0x3f104623	0.5635702
15	0x3f2f166e	0.683936
16	0x3d05eaf8	0.032694787
17	0xbe13f113	-0.14447431
18	0xbf2e15ba	-0.680019
19	0x3e83e563	0.25760946
20	0x3f963da2	1.1737559
21	0xbee925a8	-0.45536542
22	0x3fb6549f	1.4244574
23	0x3ebb1abc	0.36543834
24	0x3e1976b1	0.14986683
25	0xbe9e9ea2	-0.30980402
26	0xbe958b57	-0.2920787

out.bias f4 [3]
0	0x3f4bf048	0.79663515
1	0x3f881c8c	1.0633712
2	0xbf88f609	-1.0700084
